…
2020-06-24 00:44:38.368165: I tensorflow/core/common_runtime/gpu/gpu_device.cc:1001] 0:   N
2020-06-24 00:44:38.368245: I tensorflow/core/common_runtime/gpu/gpu_device.cc:1115] Created TensorFlow device (/job:localhost/replica:0/task:0/device:GPU:0 with 7385 MB memory) -> physical GPU (device: 0, name: GeForce RTX 2080, pci bus id: 0000:26:00.0, compute capability: 7.5)
__________________________________________________________________________________________________
Layer (type)                    Output Shape         Param #     Connected to
==================================================================================================
input_1 (InputLayer)            (None, 32, 32, 1)    0
__________________________________________________________________________________________________
conv2d_1 (Conv2D)               (None, 32, 32, 16)   144         input_1[0][0]
__________________________________________________________________________________________________
batch_normalization_1 (BatchNor (None, 32, 32, 16)   64          conv2d_1[0][0]
__________________________________________________________________________________________________
activation_1 (Activation)       (None, 32, 32, 16)   0           batch_normalization_1[0][0]
__________________________________________________________________________________________________
conv2d_2 (Conv2D)               (None, 32, 32, 64)   9216        activation_1[0][0]
__________________________________________________________________________________________________
batch_normalization_2 (BatchNor (None, 32, 32, 64)   256         conv2d_2[0][0]
__________________________________________________________________________________________________
activation_2 (Activation)       (None, 32, 32, 64)   0           batch_normalization_2[0][0]
__________________________________________________________________________________________________
dropout_1 (Dropout)             (None, 32, 32, 64)   0           activation_2[0][0]
__________________________________________________________________________________________________
conv2d_3 (Conv2D)               (None, 32, 32, 64)   36864       dropout_1[0][0]
__________________________________________________________________________________________________
conv2d_4 (Conv2D)               (None, 32, 32, 64)   1024        activation_1[0][0]
__________________________________________________________________________________________________
add_1 (Add)                     (None, 32, 32, 64)   0           conv2d_3[0][0]
                                                                 conv2d_4[0][0]
__________________________________________________________________________________________________
batch_normalization_3 (BatchNor (None, 32, 32, 64)   256         add_1[0][0]
__________________________________________________________________________________________________
activation_3 (Activation)       (None, 32, 32, 64)   0           batch_normalization_3[0][0]
__________________________________________________________________________________________________
conv2d_5 (Conv2D)               (None, 16, 16, 128)  73728       activation_3[0][0]
__________________________________________________________________________________________________
batch_normalization_4 (BatchNor (None, 16, 16, 128)  512         conv2d_5[0][0]
__________________________________________________________________________________________________
activation_4 (Activation)       (None, 16, 16, 128)  0           batch_normalization_4[0][0]
__________________________________________________________________________________________________
dropout_2 (Dropout)             (None, 16, 16, 128)  0           activation_4[0][0]
__________________________________________________________________________________________________
conv2d_6 (Conv2D)               (None, 16, 16, 128)  147456      dropout_2[0][0]
__________________________________________________________________________________________________
conv2d_7 (Conv2D)               (None, 16, 16, 128)  8192        activation_3[0][0]
__________________________________________________________________________________________________
add_2 (Add)                     (None, 16, 16, 128)  0           conv2d_6[0][0]
                                                                 conv2d_7[0][0]
__________________________________________________________________________________________________
batch_normalization_5 (BatchNor (None, 16, 16, 128)  512         add_2[0][0]
__________________________________________________________________________________________________
activation_5 (Activation)       (None, 16, 16, 128)  0           batch_normalization_5[0][0]
__________________________________________________________________________________________________
conv2d_8 (Conv2D)               (None, 8, 8, 256)    294912      activation_5[0][0]
__________________________________________________________________________________________________
batch_normalization_6 (BatchNor (None, 8, 8, 256)    1024        conv2d_8[0][0]
__________________________________________________________________________________________________
activation_6 (Activation)       (None, 8, 8, 256)    0           batch_normalization_6[0][0]
__________________________________________________________________________________________________
dropout_3 (Dropout)             (None, 8, 8, 256)    0           activation_6[0][0]
__________________________________________________________________________________________________
conv2d_9 (Conv2D)               (None, 8, 8, 256)    589824      dropout_3[0][0]
__________________________________________________________________________________________________
conv2d_10 (Conv2D)              (None, 8, 8, 256)    32768       activation_5[0][0]
__________________________________________________________________________________________________
add_3 (Add)                     (None, 8, 8, 256)    0           conv2d_9[0][0]
                                                                 conv2d_10[0][0]
__________________________________________________________________________________________________
batch_normalization_7 (BatchNor (None, 8, 8, 256)    1024        add_3[0][0]
__________________________________________________________________________________________________
activation_7 (Activation)       (None, 8, 8, 256)    0           batch_normalization_7[0][0]
__________________________________________________________________________________________________
average_pooling2d_1 (AveragePoo (None, 1, 1, 256)    0           activation_7[0][0]
__________________________________________________________________________________________________
flatten_1 (Flatten)             (None, 256)          0           average_pooling2d_1[0][0]
__________________________________________________________________________________________________
dense_1 (Dense)                 (None, 72)           18504       flatten_1[0][0]
__________________________________________________________________________________________________
activation_8 (Activation)       (None, 72)           0           dense_1[0][0]
==================================================================================================
Total params: 1,216,280
Trainable params: 1,214,456
Non-trainable params: 1,824
__________________________________________________________________________________________________
[INFO] shape of x_train_task:  (6000, 32, 32, 1)
[INFO] shape of x_train_task_transformed:  (432000, 32, 32, 1)
…
